output/model_wt.pth (torch, 1887 bytes, 4 tensors)

hidden_layer_1.weight f4 [8, 4]
0	0xbe591530	-0.21199489
1	0x3ee5f514	0.44913542
2	0xbe48ce30	-0.19609904
3	0xbda8efe1	-0.08248878
4	0x3eb3d8e8	0.35126424
5	0x3e77dcc5	0.2420531
6	0xbec2df32	-0.3806091
7	0xbe2e1e4e	-0.17003748
8	0x3e23302e	0.15936348
9	0xbc7472e5	-0.014919971
10	0xbe5fc742	-0.21853355
11	0xbe308a9e	-0.17240378
12	0x3e8aaf9b	0.270871
13	0x3edbe022	0.42944437
14	0xbeb07aa4	-0.34468567
15	0x3ec30622	0.38090616
16	0xbdcdca9a	-0.10048409
17	0x3e880e11	0.26573232
18	0x3ed0c754	0.40777075
19	0xbebc02f1	-0.36720994
20	0xbf09a76c	-0.5377109
21	0x3e6d8b3e	0.23197648
22	0x3ede7fe6	0.43456954
23	0x3e8c19b7	0.2736337
24	0x3e6f5a94	0.23374397
25	0xbf165ab2	-0.5873214
26	0x3e604781	0.21902277
27	0x3ee6334d	0.44961014
28	0xbdc85347	-0.09781509
29	0x3ecaaed6	0.39586514
30	0x3e46bfb0	0.1940906
31	0xbea0945a	-0.31363183

hidden_layer_1.bias f4 [8]
0	0x3ed59e88	0.41722512
1	0xbe973d5d	-0.29539004
2	0x3d8dfea0	0.069333315
3	0xbe61afa7	-0.22039662
4	0x3e4999a7	0.1968752
5	0x3e37cad6	0.1794847
6	0x3ec3a718	0.3821342
7	0x3e380877	0.17971979

output_layer.weight f4 [3, 8]
0	0xbe5987cb	-0.21243207
1	0x3c79f812	0.0152568985
2	0x3e77757e	0.24165913
3	0xbedfd8ea	-0.4372018
4	0x3df4c3da	0.11951418
5	0x3dfe7f63	0.12426641
6	0x3e9710c0	0.29504967
7	0xbea9ba31	-0.33149865
8	0xbe03eb9d	-0.12882848
9	0xbe4cced0	-0.20000768
10	0x3e829bde	0.25509542
11	0xbc50a3de	-0.0127343815
12	0x3ed700d5	0.41992822
13	0xbd597337	-0.053088393
14	0xbed4258f	-0.41434905
15	0x3e3ba620	0.1832509
16	0xbc52d9d9	-0.012869322
17	0xbe859572	-0.2609058
18	0xbe5c5a4a	-0.21518818
19	0x3ee438f4	0.44574702
20	0xbeae71ff	-0.34071347
21	0xbe0088a4	-0.12552124
22	0xbe360135	-0.17773898
23	0xbe005337	-0.12531744

output_layer.bias f4 [3]
0	0xbdb8934d	-0.090124704
1	0x3e972e22	0.29527384
2	0x3e2c0779	0.16799726
